tflite/model2_rekomendasi.tflite (tflite, 15492 bytes, 7 tensors)

arith.constant f4 [1, 16]
0	0xbe5b879e	-0.21438453
1	0x3e866006	0.26245135
2	0x3f274820	0.6534443
3	0xbe65d56d	-0.22444697
4	0xbf346977	-0.70473427
5	0x3f15494f	0.58314985
6	0xbe4f31e8	-0.20233881
7	0xbe1314b4	-0.14363366
8	0xbefd6849	-0.49493626
9	0x3f12de53	0.5737049
10	0x3f21b942	0.63173306
11	0xbeaac3d6	-0.33352536
12	0x3efb77b5	0.49114767
13	0xbe380339	-0.1796998
14	0xbf1dd163	-0.61647624
15	0x3ee9fc73	0.45700416

arith.constant1 f4 [16, 32]
0	0xbe8c8d6e	-0.27451652
1	0x3df47bf5	0.119377054
2	0x3d61c473	0.05511899
3	0x3e84ef64	0.2596389
4	0xbd47b3ef	-0.048755582
5	0x3edad98f	0.4274411
6	0xbe319d9a	-0.17345276
7	0x3e9fd7a6	0.31219214
8	0x3df044d8	0.11731881
9	0xbe328d6d	-0.17436762
10	0x3e9de887	0.30841467
11	0xbcaaa0e1	-0.020828666
12	0xbcb7a7e9	-0.022418933
13	0x3df497d5	0.11943022
14	0x3d1a17c7	0.037620332
15	0xbea752c5	-0.32680336
16	0xbe416c7c	-0.1888904
17	0x3e9196be	0.2843532
18	0x3c370ce7	0.01117251
19	0xbe494b0c	-0.19657534
20	0x3d33c666	0.04389038
21	0xbe86a74b	-0.2629951
22	0x3ecf4bdf	0.40487573
23	0x3c0adfbc	0.008476194
24	0xbe7497c5	-0.2388602
25	0x3e488f6d	0.19585963
26	0xbe1f5208	-0.15558636
27	0x3ea85b29	0.3288205
28	0x3d0f27a3	0.03494991
29	0x3d51f82d	0.05126207
30	0xbd840add	-0.064473845
31	0xbe220f90	-0.15826249
32	0x3e5b6ecf	0.21428989
33	0xbab7fdd8	-0.0014037443
34	0x3ec5cf58	0.38634753
35	0xbdf2cdb9	-0.11855645
36	0xbd1d37b8	-0.038383216
37	0xbd244823	-0.040107857
38	0xbdb8ff58	-0.09033078
39	0xbd9c76c9	-0.07639844
40	0x3e714ed5	0.23565228
41	0x3de5286b	0.1118935
42	0x3ebedb4c	0.37276685
43	0x3e126051	0.14294554
44	0xbec79343	-0.3897954
45	0xbeb48d52	-0.3526407
46	0xbbcbeb13	-0.0062230914
47	0x3ecffed7	0.40624115
48	0x3ebd2170	0.36939573
49	0xbe455aa2	-0.19272855
50	0xbe04d6a2	-0.12972501
51	0xbd0acf20	-0.033888936
52	0xbe6cd04b	-0.23126332
53	0x3e7a5d3e	0.24449632
54	0xbeb11d1f	-0.3459253
55	0xbebe0392	-0.371121
56	0x3e251762	0.16122201
57	0xbdeb4eae	-0.11489616
58	0x3bc9bc7d	0.0061565028
59	0x3d5ecb23	0.054392945
60	0x3d89b524	0.06724003
61	0x3e10a5a4	0.14125687
62	0xbd286616	-0.04111298
63	0x3ec1f135	0.3787934
64	0x3e170f1d	0.14751859
65	0xbce33005	-0.027732858
66	0x3ec4d60c	0.38444555
67	0xbe5441d0	-0.2072823
68	0xbddc4456	-0.107552215
69	0x3d489186	0.048966907
70	0x3f010723	0.50401515
71	0xbe3c6496	-0.18397745
72	0xbe24d783	-0.16097836
73	0x3e9977cb	0.29974207
74	0x3ecdc8bf	0.4019222
75	0x3e764108	0.24048245
76	0xbe3023f1	-0.1720121
77	0xbea2e9c4	-0.31818974
78	0xbe714484	-0.23561293
79	0x3ea387de	0.31939596
80	0xbe378435	-0.17921527
81	0xbd2e48f6	-0.04255005
82	0xbe0f2be9	-0.13981594
83	0xbe52c302	-0.20582202
84	0xbe2271e8	-0.15863764
85	0xbcf9258b	-0.03041341
86	0xbe9f4457	-0.31106827
87	0xbeb71b74	-0.35763133
88	0x3ea47e5f	0.32127663
89	0xbdbcd845	-0.09220938
90	0x3e12dc88	0.14341938
91	0xbe893fed	-0.26806584
92	0x3de7b98e	0.113146886
93	0xbdd6deee	-0.10491739
94	0x3e01464d	0.12624474
95	0x3cfdf3b0	0.030999988
96	0xbe9032f4	-0.28163874
97	0xbdfd914a	-0.12381227
98	0xbe91ad22	-0.28452402
99	0xbd0ad700	-0.033896446
100	0xbe5945cb	-0.2121803
101	0xbeac9d5b	-0.33713803
102	0x3e079f40	0.13244343
103	0x3dddff50	0.108397126
104	0x3dd19a1c	0.10234472
105	0xbe375581	-0.17903711
106	0x3ad9d8f4	0.0016620443
107	0x3e4d71d5	0.20062955
108	0xbe066cf9	-0.13127507
109	0x3d8b352c	0.06797251
110	0x3e171fbe	0.14758202
111	0xbe830804	-0.25592053
112	0x3e49680e	0.196686
113	0xbe841a9d	-0.25801554
114	0x3e9a903b	0.30188164
115	0xbd11edf8	-0.035627335
116	0xbd162a20	-0.036661267
117	0xbb5cd1a8	-0.00336943
118	0xbe4cb7ae	-0.19991943
119	0x3d7c5c1f	0.06161129
120	0xbe93d02b	-0.28869757
121	0xbd0f9444	-0.035053506
122	0x3e4a79ee	0.19773075
123	0xbdd8655a	-0.10566206
124	0xbeb28839	-0.34869555
125	0xbd97384d	-0.073837854
126	0xbded9110	-0.11599934
127	0x3de27496	0.11057393
128	0x3e8deace	0.27718204
129	0x3e854b8d	0.26034203
130	0x3e81a68f	0.25322387
131	0x3ad4d0e2	0.0016236568
132	0xbd29bd7d	-0.041440476
133	0xbec4dad9	-0.38448218
134	0xbe838f52	-0.25695282
135	0xbe9bde3f	-0.30442998
136	0xbd99e863	-0.075150274
137	0xbea7fa1b	-0.32808003
138	0x3c854afc	0.016271107
139	0x3dfb3858	0.12266606
140	0xbe754ae3	-0.23954348
141	0x3e250271	0.16114213
142	0x3ede32fc	0.43398273
143	0xbe80a93d	-0.2512912
144	0xbe39287e	-0.18081853
145	0xbda55da1	-0.08074499
146	0xbdc730b9	-0.0972609
147	0x3e954851	0.29156736
148	0xbea60645	-0.32426658
149	0xbe731af0	-0.23740745
150	0x3ebe13c3	0.37124452
151	0x3e9ad22e	0.3023848
152	0xbecc64c1	-0.3992062
153	0x3e889cf9	0.2668226
154	0xbe9b92ed	-0.30385533
155	0x3df798e0	0.120897055
156	0x3ec5074e	0.38482136
157	0xbdbdea2e	-0.09273182
158	0xbd4b46a4	-0.049627915
159	0xbdf881e3	-0.12134149
160	0xbe4be8b6	-0.19912991
161	0x3e407e39	0.1879815
162	0x3e2f9711	0.17147471
163	0x3e9aac18	0.30209422
164	0x3eb1fd85	0.34763733
165	0xbe142c6b	-0.14470069
166	0x3e5bcb0f	0.2146418
167	0x3e2cd7e1	0.16879226
168	0xbec9487e	-0.3931312
169	0xbe7e6fda	-0.24847355
170	0xbd59545c	-0.053058967
171	0x3ec7cf94	0.39025557
172	0xbeb9a0cd	-0.36255494
173	0xbeb6a88f	-0.35675475
174	0x3e492018	0.19641149
175	0x3edd5126	0.43225974
176	0x3dc65cab	0.09685644
177	0x3ed6c1c6	0.41944712
178	0x3e7e4d01	0.24834062
179	0x3e649f8e	0.2232649
180	0xbea84a02	-0.32868963
181	0xbdeff7ae	-0.11717163
182	0x3d103494	0.035206392
183	0xbe0f65d0	-0.14003682
184	0xbcf3558c	-0.029703878
185	0xbeadf549	-0.339762
186	0x3e77af84	0.24188048
187	0x3d293cd7	0.041317787
188	0x3e070335	0.13184817
189	0x3ebc756e	0.36808342
190	0x3e5db749	0.21651949
191	0x3b605b14	0.0034233974
192	0x3dd7f182	0.10544111
193	0xbe242ea3	-0.16033415
194	0x3e32da8b	0.1746618
195	0x3d5d60ab	0.054047268
196	0xbed583bd	-0.4170207
197	0x3ec658ca	0.38739616
198	0xbe7575a3	-0.23970656
199	0x3e4430d7	0.19159256
200	0x3cef4d97	0.029211802
201	0x3e1ac569	0.15114368
202	0xbe7f1343	-0.24909692
203	0xbed0dcc9	-0.40793446
204	0xbd5ce648	-0.05393055
205	0x3daad39d	0.08341143
206	0xbcbe743e	-0.023248788
207	0x3e0d9aca	0.13828579
208	0xbead8365	-0.3388931
209	0x3e53341a	0.20625344
210	0x3bf4e7c0	0.007473916
211	0x3e74bc06	0.2389985
212	0x3e59a234	0.21253282
213	0xbe7b12b3	-0.24518852
214	0x3df117be	0.117721066
215	0x3e923d9a	0.28562623
216	0xbea1341a	-0.31485063
217	0x3ec0b725	0.37639728
218	0x3e9c86ab	0.30571494
219	0x3da2ed3b	0.07955404
220	0x3eb766b7	0.35820553
221	0x3e82fdb5	0.25584188
222	0x3e8b92be	0.27260393
223	0xbe807478	-0.2508886
224	0x3e17495d	0.1477408
225	0xbe1cb9cb	-0.1530525
226	0xbeb7ad9f	-0.3587465
227	0xbe03a852	-0.12857178
228	0xbd307b5a	-0.043086387
229	0xbd79423b	-0.060854178
230	0xbdb213e5	-0.08695201
231	0xbdd395ec	-0.1033133
232	0x3de62b9b	0.11238786
233	0xbdba2d93	-0.09090724
234	0xbe3fd179	-0.18732251
235	0x3e82f0ad	0.25574246
236	0xbdf0d074	-0.11758509
237	0xbe8fb39a	-0.28066713
238	0xbe6194fa	-0.22029486
239	0xbd9bb357	-0.07602566
240	0xbdcaf58b	-0.09910115
241	0xbebc7afc	-0.3681258
242	0x3dbca651	0.0921141
243	0xbd5eab28	-0.054362446
244	0x3e6d7f14	0.23193008
245	0xbd6ed344	-0.058306947
246	0x3e41ebe8	0.18937647
247	0xbe7d4c8f	-0.24736236
248	0x3d16dce7	0.036831763
249	0xbe117dcb	-0.14208142
250	0x3d544073	0.051819276
251	0x3ea0b864	0.3139068
252	0xbe926186	-0.2859003
253	0x3d15a9f0	0.03653902
254	0x3e171cfa	0.14757147
255	0x3e75eb01	0.24015428

arith.constant2 f4 [32, 64]
0	0xbd96b4b1	-0.07358683
1	0xbd8d1032	-0.06887855
2	0xbdd9ae43	-0.10628941
3	0xbc8dd909	-0.017315404
4	0x3c06715e	0.00820574
5	0x3dd62f2f	0.10458218
6	0xbe7e2564	-0.24818951
7	0xba8ac55e	-0.0010587384
8	0xbe414eea	-0.1887776
9	0x3d215b9e	0.039394014
10	0x3b5396a1	0.0032285827
11	0xbe87f4ad	-0.2655386
12	0x3dd559ac	0.10417494
13	0xbd58c515	-0.052922327
14	0x3d5f51b1	0.054521266
15	0x3c698b72	0.014254438
16	0x3e27aa4b	0.16373555
17	0x3dc6c2cc	0.09705123
18	0xbdeff23a	-0.11716123
19	0x3e6b73b8	0.22993362
20	0xbdded251	-0.108799584
21	0xbe3f57d2	-0.18685845
22	0xbe40dc69	-0.1883408
23	0x3eaba1a9	0.33521774
24	0x3e9ff48d	0.31241265
25	0xbd6c5c6a	-0.05770532
26	0x3d576c51	0.052593533
27	0xbd67dfed	-0.056610037
28	0xbe845061	-0.25842574
29	0x3e66f13f	0.22552966
30	0x3e8deb48	0.27718568
31	0x3ddb0739	0.10694737
32	0x3dbab7ba	0.09117074
33	0x3e9504dc	0.2910527
34	0xbe3f2e89	-0.18670096
35	0x3e547873	0.20749073
36	0x3e20bf49	0.1569797
37	0x3d97975b	0.07401916
38	0xbd019e40	-0.03164506
39	0xbdcf7c05	-0.10131077
40	0x3e1ebf27	0.15502606
41	0x3b60f652	0.0034326506
42	0x3e52d2e3	0.2058826
43	0xbcd7eb35	-0.026357273
44	0x3e6ebcf0	0.23314261
45	0xbe12a18d	-0.14319439
46	0x3e29c20b	0.16577928
47	0xbda2102a	-0.07913239
48	0x3e799108	0.24371731
49	0x3e40e38d	0.18836804
50	0xbd7288cc	-0.05921249
51	0x3dd306a6	0.103040025
52	0x3d18dbd8	0.037319034
53	0xbd4d8edb	-0.050185066
54	0x3d2f1a75	0.04274984
55	0xbe28b790	-0.16476274
56	0x3dd4ea77	0.10396283
57	0x3e1c8905	0.15286644
58	0xbdaf9e78	-0.085751474
59	0x38ce10ca	9.825973e-05
60	0x3da2a467	0.079415135
61	0xbe5a7c3d	-0.21336456
62	0xbe351bd2	-0.17686394
63	0x3db41509	0.08793075
64	0x3e3be9d5	0.18350919
65	0xbc9c42e6	-0.019074868
66	0xbe4e4000	-0.20141602
67	0xbd8e242b	-0.06940492
68	0xbb3afdab	-0.0028532546
69	0xbdd4e1e4	-0.10394648
70	0xbe26cc09	-0.1628877
71	0x3e19afb0	0.15008426
72	0xbe0926d5	-0.1339372
73	0x3d7d3620	0.061819196
74	0x3e66fe4b	0.22557943
75	0xbe5d01d6	-0.21582732
76	0x3da79607	0.08182912
77	0xbd9d50ae	-0.07681404
78	0xbd7313ab	-0.05934493
79	0x3df422ff	0.119207375
80	0x3e61179f	0.21981667
81	0xbe60e02d	-0.21960516
82	0x3d50d94d	0.050988484
83	0xbe0aab5a	-0.13541928
84	0xbe0abb1d	-0.1354794
85	0x3e2b72ee	0.16743061
86	0xbe4b3ca8	-0.19847357
87	0x3e11e5e8	0.14247859
88	0xbd92810d	-0.07153521
89	0x3e415e53	0.18883638
90	0x3e42d868	0.19027865
91	0x3e49f6ba	0.19723025
92	0x3c140eed	0.009036762
93	0xbe53a33c	-0.20667738
94	0x3e37163e	0.17879578
95	0xbdacbf90	-0.08434975
96	0x3e66f157	0.22553001
97	0x3c5428d6	0.012949189
98	0xbe39b7c7	-0.18136512
99	0xbe758e65	-0.239801
100	0xbdffb0c6	-0.12484889
101	0xbc4f431f	-0.01265028
102	0x3df5e50e	0.12006579
103	0xbe456995	-0.19278558
104	0xbda2f02a	-0.07955964
105	0x3d474783	0.048652183
106	0x3df5665f	0.11982416
107	0x3d5d4cb9	0.054028247
108	0x3e33e2c6	0.17566976
109	0x3d4207bc	0.047370657
110	0x3e660b9a	0.22465363
111	0x3e5ccf60	0.21563482
112	0x3d9fbbf8	0.07799524
113	0xbe0d4cc4	-0.13798815
114	0x3e6795d2	0.22615746
115	0x3dd66c29	0.10469849
116	0xbdaa656b	-0.08320125
117	0x3e25b306	0.16181573
118	0xbd3efdec	-0.046628878
119	0x3e6c3051	0.23065306
120	0xbc8ceeee	-0.017203774
121	0x3e6ce412	0.23133877
122	0x3e64e1bd	0.22351737
123	0xbc8ca4c0	-0.017168403
124	0xbe1753a4	-0.14778
125	0x3d85b7da	0.065292075
126	0x3d29d516	0.04146298
127	0xbdd6cde7	-0.104884915
128	0xbe2dafd8	-0.1696161
129	0x3e934391	0.28762487
130	0x3e61e144	0.22058588
131	0x3dcde45b	0.10053321
132	0x3d839ce3	0.06426408
133	0x3e585bdd	0.21128793
134	0x3e2814b7	0.16414152
135	0x3e09e310	0.13465524
136	0x3e65ec94	0.22453529
137	0xbd71b49a	-0.059010126
138	0xbe0450ae	-0.12921402
139	0x3d01bd97	0.031674948
140	0xbdb81f80	-0.08990383
141	0xbd5966af	-0.053076442
142	0x3ead6fdd	0.33874407
143	0x3dcfc0c2	0.101441875
144	0x3e1f6740	0.1556673
145	0xbcef118b	-0.02918317
146	0x3e9a5740	0.3014469
147	0xbdd8f164	-0.105929166
148	0x3db91a64	0.09038237
149	0x3cdeba36	0.027188402
150	0xbb6c9828	-0.0036101434
151	0xbd80cdf0	-0.062892795
152	0x3e2fd005	0.17169197
153	0x3d85bc46	0.06530051
154	0x3e59e01e	0.212769
155	0xbdcda22e	-0.10040699
156	0xbe45440e	-0.19264242
157	0xbdede0af	-0.116151206
158	0x3e822fae	0.25427002
159	0x3e0e68a3	0.13907103
160	0x3e826dfb	0.25474533
161	0x3e8068dc	0.2508
162	0x3dba04b7	0.090829305
163	0x3dd815d3	0.10551038
164	0xbd8e19b6	-0.06938498
165	0x3eaba4b3	0.33524093
166	0xbd9b4a3c	-0.075825185
167	0x3e65ac35	0.22428973
168	0x3e2bb654	0.16768771
169	0x3ca221bd	0.019791478
170	0xbd9fecb1	-0.07808817
171	0xbe3186d6	-0.17336592
172	0x3e996dd4	0.29966605
173	0xbd86e015	-0.06585709
174	0x3e4faf98	0.20281827
175	0x3e292194	0.16516715
176	0x3e865f20	0.2624445
177	0x3e0139eb	0.1261975
178	0x3cc931af	0.024559824
179	0x3e460a84	0.19339949
180	0x3d8ea714	0.069654614
181	0x3e6dfaf7	0.23240267
182	0xbdf30446	-0.118660495
183	0xbdb72a72	-0.08943643
184	0x3e60df62	0.21960214
185	0x3e5e5cb6	0.21715054
186	0xbe193503	-0.14961629
187	0x3eaab979	0.3334463
188	0x3ea4c18d	0.32178918
189	0x3ca8d163	0.020607656
190	0x3cb156f8	0.021647915
191	0xbe2b1834	-0.16708452
192	0xbe02146b	-0.12703101
193	0x3e075196	0.13214716
194	0xbe3d6c88	-0.18498433
195	0xbc8acfb0	-0.016944736
196	0xbdf26ff7	-0.11837762
197	0xbe5adefd	-0.21374126
198	0xbd97d683	-0.07413962
199	0xbaf6e485	-0.0018836415
200	0x3d863eab	0.06554922
201	0xbc01d16d	-0.007923466
202	0xbe70d7f4	-0.2351988
203	0x3cb8a028	0.022537306
204	0xbd4e5a18	-0.05037889
205	0x3d948783	0.07252409
206	0xbd6b69d9	-0.05747399
207	0xbe0bc092	-0.13647678
208	0x3e0429ba	0.12906542
209	0xbe18522e	-0.14875099
210	0xbe6a4f55	-0.22881825
211	0x3d05a9f3	0.03263278
212	0x3d3bcef2	0.045851655
213	0x3e6c849c	0.23097461
214	0x3e6ea3c1	0.23304655
215	0xbd05b527	-0.032643463
216	0x3bf1c821	0.0073785936
217	0xbe01ceec	-0.1267659
218	0xbdafea84	-0.08589652
219	0x3ddf272d	0.10896144
220	0x3e8dcaa7	0.27693674
221	0x3e3ac8db	0.18240683
222	0xbd83f145	-0.06442503
223	0x3e65f7e6	0.22457847
224	0x3d7f6a32	0.062357135
225	0xbe1b2124	-0.15149361
226	0x3e618886	0.22024736
227	0xbe411d26	-0.18858775
228	0xbb1ee364	-0.0024244422
229	0x3d2c3881	0.042046074
230	0xbdfd37f8	-0.12364191
231	0x3e5d8bcb	0.21635358
232	0x3c87d8ce	0.016582873
233	0x3e720685	0.236353
234	0xbe158819	-0.14602698
235	0x3e847643	0.25871477
236	0x3d7da451	0.061924282
237	0xbe21e028	-0.15808165
238	0xbdd0e078	-0.10199064
239	0x3e86a5e8	0.2629845
240	0x3dd600a6	0.104493424
241	0x3dd422f3	0.103582285
242	0x3e41e474	0.18934804
243	0x3d05283a	0.032509066
244	0xbd77af24	-0.06046976
245	0x3e22f3b1	0.15913273
246	0x3e3b3387	0.18281375
247	0xbe72cc1f	-0.23710679
248	0x3da5a467	0.08087998
249	0x3e9012cd	0.28139344
250	0xbde6ff06	-0.112791106
251	0xbe144e37	-0.14482962
252	0xbd9952d1	-0.07486499
253	0x3dd2a615	0.10285584
254	0xbd58fa4a	-0.05297307
255	0x3e284da2	0.16435865

arith.constant4 f4 [16]
0	0xbaf16830	-0.0018417891
1	0x3de4e156	0.11175792
2	0x3dc5d7a8	0.09660274
3	0xbc4219c8	-0.011846967
4	0xbcdff31b	-0.027337601
5	0x3da27a8f	0.079335324
6	0xbd1c013a	-0.038087107
7	0xbcfa05f5	-0.030520419
8	0xbce4bb64	-0.027921386
9	0x3d81621a	0.063175395
10	0x3d975021	0.0738833
11	0xbaa5d49f	-0.0012651867
12	0x3d96bb7b	0.07359978
13	0xbc6d3616	-0.014478227
14	0x3db90375	0.090338625
15	0x3d33412d	0.04376333

arith.constant5 f4 [32]
0	0x3d83f190	0.06442559
1	0xbd2a2b5d	-0.04154526
2	0x3e00d19d	0.12579961
3	0x3d4209a5	0.04737248
4	0x3dec333c	0.1153321
5	0x3ba624f3	0.0050703227
6	0x3db6cdc8	0.089259684
7	0x3ba55d72	0.00504654
8	0xbbff6970	-0.0077945516
9	0x3d8d0829	0.06886322
10	0x3d862e98	0.06551856
11	0x3d964c48	0.07338768
12	0xbcc90ebc	-0.024543159
13	0xbbca106c	-0.0061665084
14	0xbb3321a7	-0.002733329
15	0x3d70372b	0.058646362
16	0xbb052e5b	-0.002032182
17	0x3ddb7700	0.10716057
18	0xbb4dbeac	-0.0031394167
19	0x00000000	0.0
20	0xbbc3ac80	-0.0059714913
21	0xbcc0b07c	-0.023521654
22	0xbd156182	-0.036469944
23	0x3b1f7209	0.0024329445
24	0x3dca7e5f	0.098873846
25	0xbb48f21b	-0.0030661884
26	0x3d5c7ee0	0.053831935
27	0xbc824be1	-0.015905323
28	0x3c60f32c	0.013729852
29	0x3d572f7b	0.052535515
30	0x3cf4d72a	0.029887754
31	0x3c0d60f0	0.008629069

sequential_1_1/dense_4_1/Add/ReadVariableOp f4 [64]
0	0x3c35e9cd	0.011103106
1	0x3dea7203	0.11447527
2	0xbd219d82	-0.03945685
3	0x3d0bc30e	0.034121566
4	0xbbf77704	-0.0075520296
5	0x3d5307fa	0.05152128
6	0xbc2316aa	-0.009954134
7	0x3ddadcf5	0.106866755
8	0x3a881c4c	0.001038441
9	0xbd6247f4	-0.0552444
10	0xbc8166a0	-0.015796006
11	0x3d99cb47	0.07509475
12	0x3d3e38b5	0.0464408
13	0x3cd71170	0.026253432
14	0x3ce8b0a8	0.028404549
15	0xbd1a42fb	-0.037661534
16	0x3d1efcfd	0.038815487
17	0xbc90be42	-0.017668847
18	0xbbe36b5c	-0.0069402885
19	0x3c744ca3	0.01491085
20	0x3ce1b230	0.027550787
21	0xbc2c9af3	-0.01053499
22	0x3cf61e72	0.030043814
23	0x3dabdd96	0.083918735
24	0x3dc911ee	0.09817873
25	0x3b27c9c7	0.0025602446
26	0x3dad245a	0.08454199
27	0x3dbe9082	0.093049064
28	0xbb1edc60	-0.002424024
29	0xbcdd703e	-0.02703106
30	0x3dbbf13e	0.09176873
31	0x3b68090b	0.003540578
32	0x3d41af64	0.047286406
33	0x3dd2a1b8	0.10284752
34	0x3c024e08	0.007953174
35	0x3cc1195e	0.023571666
36	0x3d02e45f	0.031956073
37	0x3dbd68e6	0.092485234
38	0x3d196107	0.037446048
39	0xbc98fce6	-0.018675279
40	0xbc6f876b	-0.0146196885
41	0x3d24871f	0.040167924
42	0xbd063f7f	-0.0327754
43	0x3acc85a8	0.0015603798
44	0x3d60ebed	0.054912496
45	0x3da0474d	0.078260995
46	0x3c6cb49e	0.014447359
47	0x3bb2bf60	0.0054549426
48	0x3dcbcbd2	0.09950985
49	0x3dcc72f1	0.09982861
50	0x3d0a5d4e	0.03378039
51	0x3ce0ad73	0.027426457
52	0xbce5f886	-0.028072607
53	0x3d0fd85d	0.03511845
54	0xbcf31114	-0.02967123
55	0x3d190ffe	0.037368767
56	0x3cf12243	0.029435283
57	0x3c7222ec	0.014778834
58	0xbd0746ae	-0.03302639
59	0x3dd25a29	0.10271103
60	0x3d1e6f91	0.038680617
61	0x3d013b38	0.031550616
62	0x3d2e0960	0.04248941
63	0x3d9f7943	0.07786801

sequential_1_1/dense_4_1/MatMul f4 [64, 9]
0	0x3e3a7f6c	0.1821267
1	0x3b9bcc45	0.0047545754
2	0xbe351cc7	-0.17686759
3	0x3e001368	0.12507403
4	0xbdcebc1a	-0.10094471
5	0xbe2a6a12	-0.16642025
6	0xbe1d96ff	-0.15389632
7	0x3e152932	0.14566496
8	0x3e59f725	0.21285684
9	0x3e6ceb36	0.23136601
10	0x3e4e6228	0.20154631
11	0x3e90f207	0.28309652
12	0xbe986b7f	-0.29769513
13	0x3e807bc6	0.25094432
14	0x3dfc1a68	0.12309724
15	0xbe578890	-0.21048188
16	0x3e5f92bf	0.21833323
17	0x3cdb3197	0.026757045
18	0xbd847a9b	-0.06468698
19	0xbdecdfef	-0.115661494
20	0x3e180c9c	0.1484856
21	0xbe1de9eb	-0.15421264
22	0x3eb0a5c9	0.34501484
23	0x3d66a56a	0.056310095
24	0xbdc3cc98	-0.095605075
25	0xbd12c3c6	-0.035831235
26	0x3d7f4794	0.06232412
27	0xbe931512	-0.28727013
28	0x3b364dfc	0.0027817478
29	0x3e4b80b1	0.1987331
30	0xbd281995	-0.041040022
31	0x3e9addb8	0.30247283
32	0x3e840fb9	0.25793245
33	0xbd61ecab	-0.055157345
34	0x3de378fc	0.1110706
35	0x3c273bda	0.010207141
36	0xbe9abd02	-0.30222327
37	0xbd3f09ed	-0.046640325
38	0xbc9a22f7	-0.0188155
39	0x3e60e860	0.21963644
40	0x3e57394e	0.21017954
41	0xbe36ca38	-0.17850578
42	0x3d97b4b8	0.07407516
43	0xbdccc1e0	-0.09997916
44	0x3ccfc004	0.025360115
45	0x3def5e2f	0.11687886
46	0x3ebcf424	0.36905015
47	0xbd812f46	-0.06307845
48	0xbdb17c27	-0.08666258
49	0x3e58a6b1	0.21157338
50	0x3e783c56	0.24241766
51	0xbce4d709	-0.027934568
52	0x3da6b771	0.081404574
53	0x3c9e0c27	0.019292904
54	0x3d2129b4	0.03934641
55	0x3e141eff	0.14464949
56	0x3e6b2ba6	0.2296587
57	0x3dbf37af	0.09336793
58	0xbe051155	-0.12994893
59	0xbe930907	-0.28717825
60	0x3d04ae82	0.032392986
61	0x3c8e4981	0.017369034
62	0x3e734475	0.23756583
63	0x3e9b60a6	0.30347174
64	0x3d6195d1	0.055074517
65	0x3e957306	0.29189318
66	0xbe26b833	-0.16281204
67	0x3e1df91a	0.15427056
68	0xbd150dd2	-0.036390133
69	0x3e8f0298	0.27931666
70	0x3de42cdc	0.11141369
71	0x3e8c1abf	0.27364156
72	0xbe1ee460	-0.15516806
73	0xbe8f7b17	-0.28023598
74	0xbddb4c32	-0.107078925
75	0x3e92eb29	0.28695038
76	0xbe8c81db	-0.27442822
77	0x3e2ec7d3	0.17068414
78	0x3dbac90f	0.0912038
79	0xbe641751	-0.2227452
80	0xbdd0cd84	-0.10195449
81	0xbd985794	-0.07438579
82	0x3e31a306	0.17347345
83	0xbd0ae628	-0.0339109
84	0xbe4494f8	-0.19197452
85	0x3b91d5eb	0.00445055
86	0xbda89c89	-0.08232982
87	0xbd70d4e5	-0.058796782
88	0x3e1735d6	0.1476663
89	0xbdad48ca	-0.08461149
90	0xbbb062bf	-0.005382865
91	0x3e072089	0.13196005
92	0x3de1ba60	0.11021876
93	0x3dd9ae7f	0.106289856
94	0x3eb981e8	0.36231923
95	0xbe3d123b	-0.18463986
96	0xbe09cc3c	-0.13456815
97	0x3c817ba6	0.01580603
98	0xbe4c11db	-0.19928686
99	0x3e3103c0	0.17286587
100	0x3e0abf45	0.13549526
101	0x3db048ef	0.08607661
102	0xbedef98a	-0.43549758
103	0x3d1e4f14	0.038649634
104	0xbe6deda7	-0.23235188
105	0x3e816b1d	0.25277033
106	0xbe7c4663	-0.24636225
107	0x3dd133cb	0.10214957
108	0xbdb25169	-0.08706934
109	0xbd255cb2	-0.040371604
110	0xbde03271	-0.10947121
111	0xbe79e0ea	-0.24402204
112	0x3d42dff2	0.047576852
113	0xbeb5b40e	-0.35488933
114	0xbe391d2f	-0.18077539
115	0xbe7a471e	-0.24441192
116	0x3e084395	0.1330703
117	0x3ea9354a	0.3304847
118	0xbdac1c8d	-0.08403883
119	0xbe893354	-0.26796973
120	0xbe59153c	-0.21199507
121	0xbd40e971	-0.047097627
122	0xbe6934b8	-0.22774017
123	0x3d254dc7	0.040357377
124	0xbe9d6d6f	-0.30747554
125	0x3e4d6a47	0.20060073
126	0xbe82e3a0	-0.2556429
127	0x3e0e0844	0.1387034
128	0x3e0f38d9	0.1398653
129	0xbe1642db	-0.14673941
130	0xbe738259	-0.23780192
131	0x3d9ce83e	0.07661484
132	0x3d189950	0.037255585
133	0xbd4df763	-0.050284754
134	0xbe97b780	-0.29632187
135	0xbda8832d	-0.08228145
136	0xbe7d490b	-0.24734895
137	0x3c8dab3f	0.01729357
138	0xbce66329	-0.028123455
139	0x3d664f8c	0.056228206
140	0xbe8700b1	-0.26367715
141	0xbdbd3bc0	-0.09239912
142	0xbe275e6e	-0.16344616
143	0x3e90ad4c	0.28257215
144	0xbd889481	-0.0666895
145	0x3d53faa0	0.051752687
146	0xbe6015fd	-0.21883388
147	0x3bce6684	0.006298842
148	0x3e8caef2	0.27477223
149	0x3d798264	0.060915366
150	0xbe48ff91	-0.19628741
151	0xbdff09fb	-0.124530755
152	0xbd1a4b0d	-0.03766923
153	0x3e8fa49b	0.28055272
154	0x3e799c31	0.24375989
155	0xbd403d43	-0.046933424
156	0x3e86671c	0.2625054
157	0xbe8e0d2b	-0.2774442
158	0x3e1793f2	0.1480253
159	0x3de7a837	0.11311381
160	0x3e99925c	0.29994476
161	0xbe01b78e	-0.12667677
162	0x3e7cf051	0.24701048
163	0xbe0a2fe4	-0.13494831
164	0xbcec49de	-0.028843816
165	0x3d0aac1f	0.033855554
166	0x3ea0f3c1	0.3143597
167	0xbe01ae18	-0.12664068
168	0x3be86a25	0.0070927315
169	0x3c2b1cca	0.010443876
170	0x3e7dee36	0.24797902
171	0x3e0afb9f	0.13572548
172	0xbe18f141	-0.14935781
173	0x3e1190c4	0.1421538
174	0xbd973198	-0.07382506
175	0x3dd468e9	0.103715725
176	0xbde542e8	-0.11194402
177	0xbde543ce	-0.11194573
178	0xbe421897	-0.18954693
179	0x3cad8ab6	0.021184307
180	0x3eb08570	0.34476805
181	0x3da222be	0.07916783
182	0xbcef0955	-0.029179255
183	0xbd3b5b0a	-0.04574112
184	0xbe3df47b	-0.18550293
185	0xbdcb8002	-0.09936525
186	0xbd533c7b	-0.05157135
187	0xbea4e0af	-0.3220267
188	0x3cfb96fb	0.030711642
189	0xbd766d0e	-0.060162596
190	0x3e651d26	0.223744
191	0xbe6b1712	-0.2295802
192	0xbdd39d48	-0.103327334
193	0xbbedc184	-0.007255735
194	0xbe415996	-0.1888183
195	0xbc12cbf0	-0.008959755
196	0x3e552bc7	0.20817481
197	0xbd8777ca	-0.06614645
198	0x3e7dbc52	0.2477887
199	0x3d99c926	0.07509069
200	0xbe4e9a16	-0.20175967
201	0xbcdc457f	-0.026888607
202	0xbde031c4	-0.10946992
203	0x3dc6c75e	0.09705995
204	0x3e8210b0	0.25403357
205	0xbea16282	-0.31520468
206	0x3db894f3	0.09012785
207	0x3e00788c	0.12545985
208	0xbeaa724d	-0.3329033
209	0xbd386b4d	-0.045024205
210	0x3ddefd15	0.10888115
211	0xbd8bbe77	-0.06823438
212	0x3ea3cc05	0.31991592
213	0xbde6e5f0	-0.11274326
214	0x3cf56aee	0.029958215
215	0x3d9b0107	0.07568555
216	0xbe51085d	-0.20413347
217	0x3e2a2e52	0.16619232
218	0xbdd8543a	-0.1056294
219	0xbe2aea89	-0.1669103
220	0xbe94d062	-0.29065233
221	0x3eb211c4	0.3477918
222	0x3d8dfba0	0.06932759
223	0x3e8ea5b7	0.27860805
224	0x3e2afd06	0.16698083
225	0xbd1054e9	-0.035237227
226	0x3d8183c9	0.06323964
227	0xbe256c3a	-0.16154566
228	0xbd73a333	-0.05948181
229	0xbdbc8a64	-0.092060834
230	0xbe20fe2f	-0.15721963
231	0xbe8a423f	-0.27003667
232	0x3ded4590	0.115855336
233	0x3e0bc70a	0.13650146
234	0x3eb1b514	0.34708464
235	0xbba4d2ea	-0.0050300257
236	0x3e22f680	0.15914345
237	0x3e07f916	0.13278612
238	0x3e20ee82	0.15715984
239	0x3e72fdd9	0.23729648
240	0x3e08cde5	0.13359793
241	0x3da1fb19	0.07909221
242	0x3e1a76ba	0.15084353
243	0x3e835070	0.25647306
244	0xbd6383a9	-0.055545483
245	0xbd9eb5ac	-0.07749495
246	0x3e8c7d17	0.27439186
247	0xbdbc4f29	-0.09194786
248	0xbdabf282	-0.08395864
249	0xbe40f0ca	-0.18841854
250	0xbec6588f	-0.3873944
251	0xbb6c5884	-0.0036063502
252	0xbd8c09b6	-0.0683779
253	0x3e3563ee	0.17713901
254	0xbe15c015	-0.14624055
255	0x3e2361ad	0.15955229
